# Parameters
nc: 80  # number of classes
depth_multiple: 0.33  # model depth multiple
width_multiple: 0.50  # layer channel multiple
anchors:
  - [ 6, 8, 10, 20, 21, 15 ]  # P3/8
  - [ 20, 40, 40, 29, 38, 77 ]  # P4/16
  - [ 75, 58, 101, 129, 242, 212 ]  # P5/32

# YOLOv5 backbone
backbone:
  # [from, number, module, args]
  [ [ -1, 1, Focus, [ 32, 3 ] ],  # 0-P1/2
    [ -1, 1, Conv, [ 64, 3, 2 ] ],  # 1-P2/4
    [ -1, 3, C3, [ 64 ] ],
    [ -1, 1, Conv, [ 128, 3, 2 ] ],  # 3-P3/8
    [ -1, 9, C3, [ 128 ] ],
    [ -1, 1, Conv, [ 256, 3, 2 ] ],  # 5-P4/16
    [ -1, 9, C3, [ 256 ] ],
    [ -1, 1, Conv, [ 512, 3, 2 ] ],  # 7-P5/32
    [ -1, 1, SPP, [ 512, [ 5, 9, 13 ] ] ],
    [ -1, 3, C3, [ 512, False ] ],  # 9
  ]

# YOLOv5 head
head:
  [ [ -1, 1, Conv, [ 256, 1, 1 ] ],
    [ -1, 1, nn.Upsample, [ None, 2, 'nearest' ] ],
    [ [ -1, 6 ], 1, Concat, [ 1 ] ],  # cat backbone P4
    [ -1, 3, C3, [ 256, False ] ],  # 13

    [ -1, 1, Conv, [ 128, 1, 1 ] ],
    [ -1, 1, nn.Upsample, [ None, 2, 'nearest' ] ],
    [ [ -1, 4 ], 1, Concat, [ 1 ] ],  # cat backbone P3
    [ -1, 3, C3, [ 128, False ] ],  # 17 (P3/8-small)

    [ -1, 1, Conv, [ 128, 3, 2 ] ],
    [ [ -1, 14 ], 1, Concat, [ 1 ] ],  # cat head P4
    [ -1, 3, C3, [ 256, False ] ],  # 20 (P4/16-medium)

    [ -1, 1, Conv, [ 256, 3, 2 ] ],
    [ [ -1, 10 ], 1, Concat, [ 1 ] ],  # cat head P5
    [ -1, 3, C3, [ 512, False ] ],  # 23 (P5/32-large)

    [ [ 17, 20, 23 ], 1, Detect, [ nc, anchors ] ],  # Detect(P3, P4, P5)
  ]
